SpaceInvaders-v0.fskip7.160.tar.onnx (onnx, 962543 bytes, 13 tensors)

1 f4 [32, 4, 3, 3]
00000000: 7238 e3bc edd0 3a3d 2013 93bc 04b9 813c
00000010: 8229 b6be 4b99 723b f8c6 e1bb 3628 753e
00000020: a8f6 363d 9652 9bbc 9a9f fb3d cb39 2cbc
00000030: 525e 993d ef8b 1cbe fe38 b2bd 6899 07bd
00000040: 3e41 d73d 4607 9a3d f283 f73d 9d08 cdb9
00000050: 751f afbd cd9b 45be 866a 77be b255 85bc
00000060: 1662 503e a326 b63d 4f8f 433e 8c85 973d
00000070: 7bad cabe 3e37 973b 2efc 9c3e 9998 f83e
00000080: 36f8 bb3e 6492 70be 0bf6 cdbe 978c 85be
00000090: 3f4b 2a3d cad4 f73a a3b3 023e 5666 0cbe
000000a0: 1c15 9b3d c50c 1abe f724 373d 4199 0d3e
000000b0: 258d 52be 1e9e debc d5b9 40bd d3f4 b73c
000000c0: 6bb7 203d afda c0ba 78ac 84bd e1db 72bd
000000d0: cf28 7e3e 21dd 1abd d0b2 a03d c7b3 533e
000000e0: 14e5 1f3d 0694 3bbd d7b1 3e3d 2bfd 073d
000000f0: 451a b2bd 2025 9e3e a7e0 76b9 ebed cf3d
00000100: 7ad6 703c 70b8 a93c 0d71 b8be 5a79 e6bd
00000110: 4e6a 70be b8ef 6cbe eb62 c73e 8ded 08be
00000120: abf2 42bb f553 823c 67f2 06bd a7a8 be3d
00000130: ccfd 0b3d a65e 683e 57d5 d4bd 4f8e 793c
00000140: 733d 46be 1064 acbd 7a45 0d3d 62cf 9fbd
00000150: 6128 313c 8f56 1abe 8e54 ddbd 6d65 073e
00000160: d7fb 1b3c 64b9 183e 2102 e93d 0081 8f3c
00000170: 0ad0 bf3d bced 01bd f583 1abd d52d 543e
00000180: 9096 73bd dd05 a6bd 53c0 9bbd 25bb 40be
00000190: 227c 603e 94cf d2bd 3e3e c83e 154f b3be
000001a0: c707 04be bd89 98be 9b4f d43e 9088 5bbc
000001b0: bcbf f93b 5a58 12be 23cb 3bbc 487c fe3d
000001c0: 18e1 873e 80e7 4bbd 1968 01be 4a51 083d
000001d0: 5762 84bd a7ed e03d a498 32be 2897 e5bd
000001e0: ca1b c1bb 2a52 d33c 5904 863e 7799 02be
000001f0: b61d f53d 3012 43be 1040 7bbe 95f4 e7bc
00000200: 15c2 d0bc f383 d93d 3145 46be f700 b13d
00000210: 1bcb a43d f7ee d93d 81bc 283b 9e6f 3b3e
00000220: 4a58 933e 8d4c 283d 6881 30be 3917 cdbe
00000230: d27b 0fbd c992 c23d f0dc 983d f6e0 273d
00000240: b914 acbc 9798 d6bd e291 e03d 40b7 2b3e
00000250: dd20 f63d 5dc7 d13d 0a0f e73c af03 433e
00000260: 3c12 9b3d 8134 bdbd d011 56be 8708 8bbc
00000270: 8345 9ebd 8fc1 1cbe ae44 3bbc d2de 00bc
00000280: f54b c7bb 2f3c ee3b f61e d4bd f9de 863d
00000290: 443d 41bd be22 31be 555a 76be d567 3ebe
000002a0: 03c1 16be e394 c8bd 798c dfbd 63fa c53d
000002b0: 6bfd 4b3d 3916 1c3d 2a63 5b3e 637f df3e
000002c0: 8455 363e 3e0a 06bd a877 79bd 5575 76bc
000002d0: 58e6 c3bd a73a aebd e3ce 56be 7080 91bc
000002e0: 4221 62bd 1ace 863e dcec 47be 3b60 79be
000002f0: 5f85 8ebe 3f82 16bb 0b26 0b3e 8fce 2ab9
00000300: 52db 90bd 5bbc 013e 7103 5c3e 33f3 c63c
00000310: 1fa3 c93d 2d84 a6bd a632 163e ff1e c83c
00000320: ca22 2b3c d8d8 9abd 7580 453e 1bd5 eebd
00000330: b61c 9f3d 579a a2bd a055 29be 6df7 b3bd
00000340: d6b9 f0bc 21cf e13c f85a a0be f3f2 233e
00000350: b6f0 85be a862 f73d 98af b13e 8b15 473e
00000360: a246 ce3d 23f4 a8bd fb0c bebd b99f 6f3e
00000370: 95e0 dabc 2aea 543e 7de8 7bbe 7b01 a5be
00000380: 4a0d 2abe 48a3 06bd e6f4 9bbb 290e 3b3e
00000390: fd73 853e 22a8 2e3d 2dc7 073e 5c96 c5bd
000003a0: bd98 f6bd 72cc 13be bd36 8f3d 562b 773e
000003b0: 7540 0f3e 2bd1 723e 5988 ad3d 0e15 c83d
000003c0: 6b4b eebc 68ba 803a 3880 1a3e 6fb2 d43b
000003d0: 4591 b8be e618 14be 67f1 9bbe 7a3a 5fbf
000003e0: 5d2b adbe e5ca d33e 7b1e 153f 3740 583e
000003f0: a531 14bd 51f2 8cbc cefa cdbd 4ddd 14be
-0.027736876 0.045609403 -0.017953455 0.015835293 -0.35578543 0.003701764 -0.006890174 0.2394112
0.044668823 -0.018960278 0.12286301 -0.010511826 0.07488693 -0.15287755 -0.08702277 -0.033105284
0.10510491 0.075209185 0.120857134 -0.00039107064 -0.08550922 -0.19297715 -0.24161729 -0.016276214
0.20349917 0.08894088 0.19097637 0.07398519 -0.3958548 0.0046147397 0.30661148 0.48553923
0.36712807 -0.23493344 -0.40226778 -0.26083824 0.041575667 0.001890802 0.12763838 -0.13710913
0.07572386 -0.15043934 0.044712987 0.13827993 -0.20561655 -0.027175006 -0.047052223 0.022455608
0.03923742 -0.001471361 -0.06478208 -0.059291724 0.24820255 -0.03780854 0.07846606 0.20674048
0.039036825 -0.045795463 0.04655632 0.033200424 -0.08696417 0.308877 -0.00023544078 0.10152801
0.014699573 0.02071783 -0.3602375 -0.11253615 -0.23478052 -0.2313832 0.38942656 -0.13371868
-0.0029746692 0.015909174 -0.032946017 0.09309512 0.034177586 0.22692356 -0.10392254 0.015231683
-0.19359379 -0.08417523 0.034490086 -0.07803227 0.01081285 -0.15072082 -0.10807143 0.13222285
0.0095204925 0.14914471 0.11377359 0.017517567 0.09365852 -0.03172086 -0.0377235 0.20720609
-0.05946976 -0.08106587 -0.07605042 -0.1882139 0.21922353 -0.10293499 0.39109987 -0.35021272
-0.12893592 -0.29792586 0.41466984 -0.013399258 0.0076217335 -0.14291516 -0.011462006 0.124260485
0.2653892 -0.049781322 -0.12637366 0.03328065 -0.06464069 0.109828286 -0.1744104 -0.112104714
-0.0058932053 0.025796015 0.26175192 -0.12753855 0.119685575 -0.19049907 -0.24536157 -0.028314868
-0.02548317 0.106208704 -0.19362332 0.08642762 0.08046552 0.10641282 0.0025747123 0.18304297
0.28778297 0.04108863 -0.17236865 -0.4005678 -0.035030194 0.09500653 0.074640155 0.040986024
-0.021005975 -0.10478323 0.10965325 0.16769123 0.12017987 0.10243104 0.028205413 0.19044374
0.07571837 -0.0923853 -0.20905232 -0.01697184 -0.07728102 -0.15308212 -0.011429949 -0.0078656245
-0.006082053 0.007270358 -0.10357468 0.065854974 -0.047177568 -0.1729841 -0.24057896 -0.18594296
-0.14722066 -0.09794023 -0.10915465 0.09666898 0.049802225 0.03810713 0.21424547 0.43651876
0.17806059 -0.03272461 -0.06090513 -0.015042623 -0.09565419 -0.08507281 -0.20977359 -0.01776144
-0.0552075 0.26329118 -0.19523948 -0.24353115 -0.2783613 -0.0022965816 0.13588731 -0.00016289412
-0.07073082 0.12669508 0.21485688 0.024285888 0.09845566 -0.08130679 0.14667758 0.024428843
0.010445306 -0.07560891 0.19287284 -0.116617404 0.07769148 -0.07939594 -0.1653657 -0.08787427
-0.029385488 0.027564587 -0.31319404 0.16010647 -0.2616021 0.12079364 0.3470428 0.19441812
0.10072066 -0.082496904 -0.092798196 0.23400773 -0.026718417 0.20792452 -0.24600406 -0.32227692
-0.16606632 -0.03287056 -0.004759419 0.1826712 0.26065055 0.042640813 0.13259573 -0.096478194
-0.12040851 -0.14433458 0.069928624 0.24137625 0.13989432 0.23712604 0.08473272 0.09769641
-0.029088696 0.0009821178 0.15087974 0.0064909975 -0.36048332 -0.14462623 -0.30457613 -0.87198603
-0.33822146 0.41365734 0.58249635 0.21118246 -0.036180157 -0.01720539 -0.10057603 -0.14537545

2 f4 [32]
00000000: e42d 943b 3167 e7ba 6609 ceba 6b81 f5b9
00000010: 476e c0bb 14a9 723a b776 92ba 486b ecb9
00000020: b578 95ba 2078 eeba 3c35 1ebb 9bd7 ad3a
00000030: 2375 1abb 3823 e73b b0a5 183a 22b3 153d
00000040: 32f6 2fbb d76c 06bb 1a81 ffba e222 be3b
00000050: e59e 923a 350c c4ba 2fd9 533b d149 6d3a
00000060: 0bff 33ba 1b86 fdb9 4286 b23a b15a 8b3a
00000070: ed56 d2bb 8215 25ba 1bd4 d3ba be54 17bc
0.004522072 -0.0017654655 -0.0015719354 -0.00046826465 -0.005872521 0.0009256762 -0.0011174296 -0.00045093358
-0.0011403771 -0.0018193759 -0.0024140617 0.0013263108 -0.0023568354 0.007053759 0.0005823029 0.036547787
-0.0026849625 -0.002051165 -0.0019493431 0.005802498 0.001118627 -0.0014957251 0.0032325496 0.0009051832
-0.00068663125 -0.00048355837 0.0013620334 0.0010631887 -0.0064190538 -0.00062974554 -0.0016161235 -0.009236513

3 f4 [32, 32, 3, 3]
00000000: 8fd0 0dbe de28 a2be 567b 1fbe 6091 223e
00000010: ef83 993d 407a b03d e364 ddbc 7227 353e
00000020: 4fbf 33bd eae9 203d 5b9e df3d 0673 bd3d
00000030: 7707 0fbd 1c08 34bd b07b a3bc 34a3 d43d
00000040: 6ef1 13be 0f3a 933e a3fa 133d 7bf8 123e
00000050: 9dc2 96be e597 a9bd b3df 0d3d 4652 23bd
00000060: 2424 083e fc30 61be 6c78 273e ed8a ed3d
00000070: af8b 32bd 93de 183d 3218 833a c73b 1cbe
00000080: a6a6 ba3d 5e42 f13d f952 d3bd 7236 0a3e
00000090: b27e 98bc df20 8dbe eb3b 9d3d cd6a b53c
000000a0: f161 2ebe 6e84 4abd a4ef e6bb ef38 c6be
000000b0: c599 2abd 133d e8bc 6b22 7d3e e0a1 013e
000000c0: b7ee 333e 0af3 973e 823e 573e 5e78 abbc
000000d0: 198c c73c 712f 813d 2cbd 7f3d 523d df3d
000000e0: a229 293e 51f4 2a3d 206b 963e 95a2 c53d
000000f0: 2fa1 933e 531f 093e 7ebd cc3d b8d8 77bd
00000100: a521 cebd 1b60 42be c349 ad3d 37d5 ce3c
00000110: 38ed b83d fc68 f23d 8f7d 46bd 3b20 053e
00000120: 618b e93c 22e5 ff3c 570b 85bd d5ac 653d
00000130: ce3c 713e 4c0b babd 4157 dfbd da82 12bd
00000140: 807c 353d ca51 5b3b 0457 25bd 3276 31bd
00000150: 0989 a63d 3692 993e 017e 3abc fd00 84be
00000160: da58 5dbe 7c65 b23d 7f91 1d3e 56d1 30be
00000170: 692e 303e 1b9d 5bbd f80e ba3c 360d 0ebc
00000180: b571 30be 39f2 23be 03ae c3bd dc07 103d
00000190: d9d2 9f3d 4ed3 68bd 2f7c 47be aee9 e1bd
000001a0: 1aea c8bb c599 4a3e 641b 4c3e f79a 213e
000001b0: fb43 973c 9ff2 d73d 8a0a 163e 4a86 7c3e
000001c0: 015f 3cbd d823 90bd 64ae 48be a603 02be
000001d0: a4ec 0cbe 277b 14bd 0186 823d 033f c73e
000001e0: 60bd babd 5d6b 75be 4ad3 b0be 1d4d b63e
000001f0: d3ff 153e 016c 4abb ff1b c83c 21c8 3abd
00000200: 0e87 3b3e dbee 143e 67f2 8fbd f5b9 c63c
00000210: 68f6 cebb 95ca dcbd add8 0c3e 428c d1bd
00000220: ed46 843d d6cc 6fbe b846 a9bd 56a5 4e3e
00000230: e33c 3dbd b281 9d3c b744 b93c 3c91 953e
00000240: 236a b53d 00cc 1ebe 8a3d 043e e218 92bd
00000250: de33 f33d c0a9 63bd 3335 4abe 6189 18ba
00000260: 60aa b2bd b120 49bd 93ff 26bd 6a4f 5e3c
00000270: 4b1b acbc c80f 923d 6d4f 8b3e c854 5e3e
00000280: bd1a d43c 12ed 90be 54fe 5ebe 888a b33d
00000290: b523 89bd 449a 8b3e 70b3 94bd 6c9a 843e
000002a0: 5f20 8dbe cbdf 07bb d9a9 a8bd 337e 2b3d
000002b0: 5411 77bc 7a7c 0a3e 3c42 ab3c 7dcb 4d3d
000002c0: 266b 0bbe b2f4 053d ee58 d13e 47a6 2cbe
000002d0: 9fc5 f73d 5a17 4cbd 659e 423e 4525 2a3e
000002e0: 8253 9abd b36e c43d 3bd8 b2be 98a6 e7bc
000002f0: d221 09be da50 323e acfe eabd 8c40 983d
00000300: c7cc 17be 5f61 f8bc dfca e13d 1ff9 efbc
00000310: 87b8 103e f549 6abe 3e95 243d 7c26 b63d
00000320: e5ad cfbc e5f6 a9bd 3cbf f6bd 91a0 a63d
00000330: 910c 173e 9d2c a5bd 263c 593d b40f a0bd
00000340: bde4 8d3d a8cd 323d 7438 42bc 73a0 ca3d
00000350: 8889 1fbc dda6 963d f5d6 f8bd 01f7 903e
00000360: 4b45 d63d 915a 8f3d bd38 c73c f728 08be
00000370: b8d1 58be c1ec 923d a3b3 a53e c79a 543e
00000380: 03d3 793c 87f1 0b3e d48c 1abd 0dff fe3b
00000390: 32d0 22bc b151 463d 807d 303e 90f9 143e
000003a0: bb69 673e 02d7 603d d8b4 003e f8b9 06be
000003b0: 26d8 98bd 624f e2bd 2ac7 1f3e 42a3 21bd
000003c0: e9d8 ce3d a077 84bd edf2 e4bb 9fa8 eabd
000003d0: db52 6e3d 35f9 713d abb8 64be 3d15 253e
000003e0: cee1 2abd 1a57 5a3e 1d7a fc3e fd2a 0fbd
000003f0: 88d3 473e 5213 6abc b859 853e 9357 e5bc
-0.1384909 -0.31671804 -0.15574393 0.15875769 0.074958675 0.08617067 -0.027025646 0.17690828
-0.043883618 0.039285578 0.10918876 0.092504546 -0.03491923 -0.043953046 -0.01995644 0.10382691
-0.14447567 0.28755233 0.036127698 0.143526 -0.29445353 -0.08280925 0.034637164 -0.039873384
0.13295037 -0.21991342 0.16354531 0.115987636 -0.043590244 0.03732164 0.0010001718 -0.15257178
0.09113817 0.11780237 -0.1031856 0.13497332 -0.0186151 -0.2756414 0.07677444 0.022145653
-0.17029549 -0.0494427 -0.0070476104 -0.38715312 -0.041650552 -0.028349435 0.2472016 0.12659407
0.17571531 0.29677612 0.21019939 -0.020931419 0.024358796 0.06307877 0.062436268 0.10900368
0.16519788 0.041736905 0.29378605 0.09650151 0.2883391 0.13390855 0.0999708 -0.060509413
-0.10065011 -0.18981974 0.084613346 0.025248153 0.09029621 0.118364304 -0.048459586 0.13000576
0.028508844 0.031237189 -0.064963035 0.05607303 0.23558351 -0.09084186 -0.10905314 -0.03576932
0.044308186 0.0033465498 -0.040366188 -0.04332561 0.08131606 0.29994363 -0.011382581 -0.25782004
-0.21615925 0.08710763 0.15387534 -0.17267355 0.17205204 -0.053616624 0.022712216 -0.008670142
-0.17230876 -0.1601037 -0.095546745 0.035163745 0.07803888 -0.05684214 -0.19480966 -0.11030899
-0.0061314227 0.19785221 0.19932324 0.1578177 0.018465033 0.10544323 0.14652458 0.24660602
-0.04598904 -0.07038087 -0.19597775 -0.12696704 -0.13762146 -0.03625026 0.063732155 0.38915262
-0.09118152 -0.23966737 -0.345362 0.35605708 0.1464837 -0.003088713 0.024427412 -0.045601014
0.18313238 0.14544241 -0.070286565 0.024258593 -0.006315995 -0.10780827 0.1375453 -0.1023183
0.064588405 -0.23417982 -0.08265442 0.20180258 -0.046200644 0.019226883 0.022615774 0.29212368
0.088581346 -0.15507507 0.129141 -0.07133652 0.11875127 -0.055581808 -0.19746856 -0.0005818811
-0.08723903 -0.049103443 -0.04077108 0.0135687385 -0.021009108 0.07131916 0.27209035 0.21712029
0.025891656 -0.2830587 -0.21776706 0.08766657 -0.06696264 0.27266133 -0.072607875 0.25899065
-0.2756376 -0.0020732756 -0.08235521 0.0418684 -0.015079815 0.13524047 0.020905606 0.05024289
-0.13615093 0.032704063 0.4088816 -0.16860305 0.1209824 -0.049826957 0.19005735 0.1661578
-0.07535459 0.09591427 -0.34930596 -0.02827768 -0.13391808 0.17413655 -0.11474356 0.07434186
-0.1482421 -0.030319868 0.11025023 -0.029293595 0.14132892 -0.22879775 0.04018139 0.08894059
-0.025351474 -0.082990445 -0.12048194 0.08136094 0.14750887 -0.0806515 0.053035878 -0.07815495
0.06928394 0.04365316 -0.01185428 0.098938845 -0.00973738 0.073560454 -0.12150375 0.2831345
0.10462435 0.06999696 0.024319047 -0.13296877 -0.21173751 0.071740635 0.32363614 0.20762168
0.015248063 0.13666354 -0.03773196 0.0077818693 -0.009937333 0.04841775 0.17235374 0.14548326
0.22598927 0.054892547 0.12568986 -0.13156879 -0.07463102 -0.11050297 0.15603319 -0.039462335
0.10099966 -0.06468129 -0.006986967 -0.11457943 0.058184486 0.059075553 -0.2233607 0.16121383
-0.04171925 0.21322289 0.49311915 -0.034953106 0.19514287 -0.014286833 0.26045012 -0.02799586

4 f4 [32]
00000000: a056 893b 4665 ccba 4570 b3bc e933 e43b
00000010: 88f7 afbc 0f0f dd3b bcc1 cfba dad5 06bb
00000020: f29b d5bc f76b 51bd e068 46bc eaaf 6fbc
00000030: a852 db3b 24da 08bc 7e95 ed3b 6dfa ecbb
00000040: f807 4736 2bd6 4cbc 883d afbc 5cc7 b23b
00000050: 2f3e 9bbd 6c14 5eba 8621 4bbb b612 86bc
00000060: bdd9 003b f3db 89bd c9bf 50bc 7187 8cbc
00000070: 627a 0dbc 7373 a5bc 9c97 163d 2b93 42bc
0.0041912347 -0.0015594147 -0.02190412 0.006964196 -0.021480337 0.00674618 -0.0015850584 -0.0020574243
-0.026075337 -0.051128354 -0.012109965 -0.0146293435 0.006693203 -0.00835279 0.007250487 -0.0072320015
2.965795e-06 -0.0125022335 -0.021391645 0.0054558944 -0.0758022 -0.0008471671 -0.0030995323 -0.016366344
0.0019661032 -0.06731405 -0.012741038 -0.017154427 -0.008635135 -0.020196652 0.03676568 -0.011875908

5 f4 [32, 32, 3, 3]
00000000: 0afa 57bd 8cc0 133c b9d4 623e 353c 8e3d
00000010: 3bac 623c 8ab4 c43e 7ed5 8fbd 2b94 2bbe
00000020: 9115 c3be 362b 723e 499e 8fbc 76b1 bf3e
00000030: 810c 06be c75b f8bb 3afe 003e aa16 3abe
00000040: 0d13 65bd 5f2c e63d 2c88 903c 5583 60be
00000050: a4fb febd 4cad 8b3e 2d50 a23d 2ce2 a0b8
00000060: 284e 26be d579 ebbd 6e0b a7bd 2e9d 05bd
00000070: 7864 0cbe 2db7 6fbe 6871 60be 912a a83d
00000080: 3145 133e 681c 08bd d704 123f 19ac ae3d
00000090: 26ab 2fbe 72a0 0d3d 7952 8fbd cef1 e5bd
000000a0: 869b f2bd b8ec 14be 71c2 8c3c 96bd 883c
000000b0: a42c 443e 2620 c5bc 76e3 e63d b4eb 3cbe
000000c0: 98c6 0abe 1d97 e5bc 8b6e 3ebb 7af7 143e
000000d0: ee5e 5c3d d677 debd a2ab ec3c e0ed f9bd
000000e0: d842 ee3e 62a4 8c3d bfa6 943d 7387 bdbe
000000f0: 36fc c7be 67f9 12bf e048 443e 4cc6 3d3e
00000100: a54d 7cbe 6529 d93e 2d50 83bd 79a8 36be
00000110: 1c98 d13e 6acb 45be b045 01be 82e6 e33d
00000120: 3da6 43ba f366 87bd 8489 393d 22bb 773d
00000130: 733d 9bbd 0b52 9fbe acc2 55be 7f19 09be
00000140: 55fd 80be 6947 063e c371 d73d 3f38 c1be
00000150: 7ce2 ea3d 90ae a93c a615 39be 6390 413e
00000160: 6bb3 bebd 247e cebd 1900 d0bd 2c26 133c
00000170: 57a2 313e 2f52 ebbd a963 5fbe 285b 32be
00000180: e707 c43b 87e2 80be e46b ad3d 062a 86bd
00000190: a1bf 633e db87 663d 6d0a b1bd aace 4cbd
000001a0: b6e5 febd e25d bb3e a9a5 8bbe b776 0ebd
000001b0: 49f9 8dbd 63f2 783e 0079 2c3e e56f de3d
000001c0: 48f5 363c 90d7 c53d c623 f2bd c235 b43d
000001d0: 3cfe c23d f8bb 9d3d d267 36bd aa1d 403d
000001e0: dce6 e93d 4e4d 333e 1b71 f3bc 54a2 153e
000001f0: 05cb 92be 826e 8f3d 4c6d 27be ab8e 543e
00000200: 2829 093e 6cdc 733c 7e40 5a3e e323 c43d
00000210: 5733 f83d 353d ae3e 10c9 c5bb 03c5 c4bd
00000220: 611d b1bc 546d 70be 007d a13e 301f 113e
00000230: ac50 333d 5797 18be afd4 023e 4f95 cf3d
00000240: f359 90be 6d20 85be 4744 98be 079d 5bbe
00000250: 0fd9 833d 206f a53e 6769 173e 8f72 5d3e
00000260: 3349 cb3d f56e 2abd 22ae e83c 2d19 063e
00000270: 09ee 26be 086a 4bbe 7c08 fdbc 063e 5dbd
00000280: a3b9 de3d 69fe 9ebe 1a1e 253a 53f0 13be
00000290: edfa 483c 0430 dc3d 6f91 5b3e 87f2 f33b
000002a0: 170b 42bd 8b7a 623e 0b52 b43e 2b0d f1bd
000002b0: 4239 9fbc 14a5 bb3e c09e 67be 132a 0bbd
000002c0: ec48 af3d be78 943e 822f 47be 032b 033e
000002d0: 50d9 c6bc 8396 adbd 1045 43bd ca3a 61be
000002e0: e920 3fbe b903 bd3e a843 bbbd e69a 563c
000002f0: 7c33 723a 89ae 8fbe 9587 a33d 4b01 7d3d
00000300: 373c 6a3d 6779 d33d b6b3 fb3d b6df 583d
00000310: 39ae 07be 319c 803d 8650 833e 42da 0abe
00000320: 981e 58be 6fca f3bd 8f61 b83d a71b bdbd
00000330: 8b2e bf3d 3655 d33b e295 92be 5cd5 69be
00000340: 84df 1abe 857a 923e 6da3 8cbb 91db 683e
00000350: a011 9ebd 7b04 31be 2936 bdbc 7535 013e
00000360: 3898 bdbe 49e0 783d 5c2d 1d3d 2819 4fbe
00000370: 4ee6 7d3e fd7b d73d d850 0a3e 4af4 01be
00000380: fbb7 80bb 5789 fe3d bd30 e0bc 3469 5fbe
00000390: 5a2f f73c 1ba2 6d3a 5b50 efbd 7139 8a3e
000003a0: 4b65 2f3e 284f c43d 74fb 6cbe c1ad c7bd
000003b0: 7774 ef3d 61d5 793e 00ec 563e bc08 223e
000003c0: 105b 47be 1057 7e3c 986c 3bbe c8e4 3abd
000003d0: 6759 abbd 676a a2be 0ffb 363e fbc2 443e
000003e0: 7120 13be abcd 99be 6247 b63e 3bfa e6bd
000003f0: f238 0a3e dd2a 7d3e 8f97 2cbe 9c6a 943d
-0.05272869 0.009018075 0.2215146 0.06945077 0.013835008 0.3841899 -0.07023142 -0.1675574
-0.3810239 0.23649296 -0.017531531 0.3744008 -0.13090707 -0.0075793 0.1259698 -0.18172708
-0.05592637 0.11238932 0.017643057 -0.21925099 -0.124503404 0.27280653 0.079254486 -7.671522e-05
-0.16240752 -0.11497847 -0.08156477 -0.0326206 -0.13710201 -0.2340972 -0.21918261 0.08211244
0.14381863 -0.033230215 0.57038635 0.08528919 -0.17155132 0.03457684 -0.06998152 -0.11227761
-0.1184607 -0.14543426 0.01718256 0.016691964 0.19157654 -0.024063181 0.112738535 -0.18449289
-0.1355232 -0.028026158 -0.0029057588 0.1454753 0.05380147 -0.10862701 0.028890435 -0.12203574
0.46535373 0.06867291 0.07258367 -0.37017402 -0.3905961 -0.5741181 0.19168425 0.18532676
-0.24638994 0.42414394 -0.06411777 -0.17837705 0.40936363 -0.19315878 -0.1262424 0.1112795
-0.0007463431 -0.06611433 0.04529716 0.060481198 -0.0758008 -0.3111728 -0.20875043 -0.13388632
-0.25193277 0.13113178 0.10519745 -0.37738225 0.1146898 0.02071312 -0.18074664 0.18902735
-0.09311565 -0.10082653 -0.101562686 0.008981269 0.17347084 -0.11490285 -0.21815361 -0.17417586
0.0059823873 -0.25172827 0.08467844 -0.06550984 0.2224107 0.056281906 -0.08644567 -0.050001778
-0.12446158 0.36595064 -0.27274826 -0.034781184 -0.06932313 0.24311213 0.16843033 0.10861186
0.011166878 0.09660256 -0.118232295 0.08799316 0.095211476 0.07701868 -0.044532605 0.04690329
0.11420986 0.17509958 -0.029717019 0.14612705 -0.28670517 0.070034996 -0.16350287 0.20757549
0.13394606 0.014884096 0.21313664 0.09577157 0.12119167 0.34031072 -0.0060359314 -0.096078895
-0.021620454 -0.23479205 0.3154068 0.14172053 0.043778107 -0.14901482 0.12776445 0.101359
-0.28193626 -0.260013 -0.2973959 -0.2144662 0.06437885 0.32311344 0.14786302 0.21625732
0.09926071 -0.041609723 0.028403345 0.13095541 -0.1630174 -0.19864666 -0.030887835 -0.05401423
0.10875251 -0.31053475 0.0006298736 -0.14447145 0.012266857 0.10751346 0.21442197 0.007444683
-0.047373857 0.22117059 0.35218844 -0.1177009 -0.019436482 0.36649382 -0.22619152 -0.033975672
0.085588306 0.2899837 -0.19451717 0.12809376 -0.024273545 -0.084759735 -0.047673285 -0.21995082
-0.18664898 0.36916903 -0.09143764 0.013098454 0.0009239239 -0.28062847 0.079848446 0.06176881
0.05718633 0.1032589 0.122901365 0.052947722 -0.13250054 0.06279791 0.25647372 -0.13559821
-0.2110542 -0.119038455 0.09002983 -0.0923379 0.09335049 0.006449367 -0.28629977 -0.22835296
-0.15124327 0.286091 -0.004291943 0.22740008 -0.077182055 -0.17286865 -0.023097115 0.12618048
-0.37030196 0.06076077 0.038373336 -0.2022444 0.24794886 0.10521696 0.13507402 -0.12690845
-0.003928182 0.12428539 -0.02736699 -0.21817476 0.030173946 0.0009064988 -0.116852485 0.2699695
0.17128484 0.0958541 -0.23142797 -0.09749938 0.11692136 0.24397804 0.20988464 0.15823644
-0.19468331 0.015523687 -0.18303144 -0.04562834 -0.083666615 -0.31721804 0.17869209 0.19215004
-0.14367844 -0.30039725 0.35601336 -0.112781964 0.13498285 0.24723382 -0.1685469 0.072468966

6 f4 [32]
00000000: e763 b2bd 5d3e fd3d 677a 0cbe 6767 83bd
00000010: aed8 67bd ea29 f5bc b9d3 23be 303f 2dbd
00000020: 4618 aabd 06af aabe e359 a0bd 6916 edbd
00000030: b6aa 66bd 6f24 983d 71de ea3c e1bd 22be
00000040: a266 debd b0c8 e6bc 9605 41be d0a1 48bd
00000050: a766 01bb a80e 9a3d 3aef 91bd fd3c 84bd
00000060: 60fe a0bd 07af d3bd bf5d 88bd e5d3 8c3c
00000070: 0f36 eebe bc24 193d af46 93bd 71e3 ce3c
-0.08710461 0.123654105 -0.13718568 -0.06416207 -0.056603126 -0.029927213 -0.15998735 -0.04229659
-0.08305411 -0.33336657 -0.078296445 -0.1157654 -0.056315146 0.07428824 0.028670521 -0.15892746
-0.108594194 -0.028171867 -0.18849787 -0.04898244 -0.0019745023 0.07522327 -0.07125707 -0.06456945
-0.07861018 -0.10336118 -0.06658506 0.017190883 -0.46525618 0.03738855 -0.07191216 0.025254937

7 f4 [32, 32, 3, 3]
00000000: d73e d93d 6da7 9fbd 5467 70bd 6f26 583e
00000010: 1533 3bbe f8e9 f1bc 47ae b53d 1139 763d
00000020: 8b67 b43d 256b a1bd cdcc 813d 34ad 9fbc
00000030: 96ee 15be a8a8 45be a390 9cbe be61 d63d
00000040: 1f7d c3bd c5c9 a3be 37a8 693e f1fb 5b3e
00000050: 9ba9 13be 4a59 02bd 902c 9ebd 3c72 9dbd
00000060: ad58 123d 5a58 703e 8a55 253c f733 93be
00000070: 09c3 93bd 42d2 a9bd 55b7 c33e e94d 5d3d
00000080: 38e8 07bd b56f 09be 518f 0b3e 225e 9e3e
00000090: f349 02be 080c 54bc 4cb1 43bd 3ba5 663e
000000a0: 2f6b e0be 9044 ebbb 3945 d5bd 561d 96be
000000b0: 6568 23bc df5f f33c 1863 8e3d 6f89 cd3d
000000c0: 1202 20be 6b09 3d3e d5be c8bd 8f0b cc3d
000000d0: d60f ab3d 4ecf 84bd c204 19bd 0066 e73d
000000e0: 0ff8 b5bd fd0d 16be 1185 a7bd e2d3 97bd
000000f0: a84e 76be 7e95 b43e e6bd 153e d4d5 babd
00000100: 40a1 533d c906 093e 0394 4f3d f156 a9bc
00000110: 6eb9 833a 7cab d9bd 5e48 6cbe 613d 84be
00000120: 5e36 1d3d 71df 5cbd a071 a23d ee87 23be
00000130: e0c2 28be 9f36 a73e 988f 933d 842a 083e
00000140: 9351 b13d d527 2eb9 1c25 c5bd b8ff 82bd
00000150: e878 143e 9940 3bbe edb7 e8be 4019 5c3e
00000160: f0f5 abbd c2e7 5cbe 13a2 92bd 6950 e9bb
00000170: 22ec 75bd 99b3 5b3d 34b2 733e 196a c33c
00000180: 7b02 993c f987 413d ac0b 4cbd a99d 053e
00000190: 3ed1 383e 9bed 033e 082c 7ebd 705d f7bc
000001a0: 1966 29be a235 8cbd 00cb 68bd 0016 743d
000001b0: 84a2 e23c 1d17 9db9 d6e8 b73c 411e aabd
000001c0: 91ca 213c 196e b0be 545c 953e 4e24 b9bd
000001d0: 8d07 1bbe 07d1 993d c991 293e 3d15 aebd
000001e0: efe5 2abe 7ce7 6bbe b2e5 16bd e816 ba3d
000001f0: a708 7bbb 4163 68be 527d a53b 4cb9 0a3c
00000200: f9a5 f53c 2299 92bd 7daa 8a3d aa51 f4bd
00000210: 25b7 86bb 974a d23e 3454 2f3e 766f b63c
00000220: 20a4 e73d b2bf 783c f8ea b2bd da0b 453e
00000230: a43f c5bc 62f8 233d a4cb 88bd 7b65 7ebe
00000240: 1114 20be ee7a 44be ebbe 71bd adbb 303d
00000250: 2af9 653e b5ad 1cbc 00ba 0d3e 7679 f2bd
00000260: b911 30be 996b f1bd e857 443d f61e 6c3d
00000270: 53fe 393e 99b7 e03d 3ef2 40be 2150 83bd
00000280: e134 e6bd c567 38bd 4eda 5e3e 5223 3ebe
00000290: 13c4 203d bd2d 5c3e 4ef7 85be d652 213d
000002a0: 178d e8bc 486a d03e 7bba 673d 2704 673e
000002b0: c108 3c3d be1f f2bd ee81 02be 5000 143e
000002c0: 2eb7 a33d 2f84 523e 6529 303d 7d92 243d
000002d0: a7f0 a2bd aa09 153e 6f92 af3d 0925 f0bd
000002e0: d2dc e0bd c3b7 e53d aebc 863c dfc7 adbd
000002f0: 64f9 7ebe 8af7 b63d eeac c0bd 09ba 32be
00000300: 6a01 1abe bc9e 8abe 48d4 43be c39f bb3d
00000310: a172 a33e 5def 0dbe 6432 d9bd 6c93 e43d
00000320: 4d05 8abd cce4 e7bc 071a 4cbe 8a57 1d3e
00000330: 8773 8a3e 3557 16bf 43d9 ac3c a0db 633e
00000340: 6dbe a33d 1d12 423d f386 b0bd 852c 18be
00000350: bea4 cc3d 1700 0f3e 69de 46be 7593 e5bc
00000360: 64b1 a9be e44c 50bd 0c88 fcbd 17c8 68bd
00000370: bfa2 6e3e 2d18 2d3b d3f7 973e 3e79 96bd
00000380: a336 633e 4c8f 763d 11c8 6e3d 7ca6 aa3e
00000390: f81a 4b3d f4ea 133e 2dd2 0e3e afc3 91bd
000003a0: 7103 1e3e 6479 13be eb8b 88bd dbc2 bbbc
000003b0: 14cf 02bd e37f 113d 3783 cebc d11d 6d3d
000003c0: a6c3 8fbe 72d8 483e ccfe dfbc ef22 c8bc
000003d0: 0705 e03d 9611 c23d 6303 b93d 5cf1 80be
000003e0: 98c4 553e 21d2 b2bc 10e0 4e3e 15f0 68bc
000003f0: 0020 013e ce08 ce3d e1b5 593e 9003 4b3e
0.10607689 -0.07795606 -0.05869229 0.21108411 -0.18281205 -0.02953051 0.088711314 0.060113017
0.08808812 -0.07881764 0.06337891 -0.01949177 -0.14641795 -0.19302619 -0.305791 0.104678616
-0.09545349 -0.31989875 0.22818075 0.21482827 -0.14420168 -0.031823434 -0.07723343 -0.07687804
0.0357291 0.23471203 0.010091195 -0.28750584 -0.072149344 -0.082920566 0.3822581 0.05402938
-0.033180445 -0.13421519 0.1362889 0.30931193 -0.12723522 -0.012942322 -0.047776505 0.22523968
-0.43831775 -0.007179804 -0.10413594 -0.29319257 -0.00997362 0.0297088 0.069524944 0.10035979
-0.1562579 0.18460624 -0.09802023 0.09963142 0.0835263 -0.06484853 -0.037358053 0.11298752
-0.08885204 -0.14653774 -0.08179677 -0.0741346 -0.24053442 0.35270303 0.14623222 -0.09122816
0.05166745 0.13381495 0.050678264 -0.02067134 0.0010049769 -0.10628411 -0.23074481 -0.25828078
0.038381927 -0.053924028 0.079318285 -0.15969822 -0.16480589 0.3265886 0.07205123 0.13297468
0.08658137 -0.00016608772 -0.09626219 -0.06396431 0.14499247 -0.18286361 -0.45452824 0.21494007
-0.08396518 -0.21572784 -0.071598195 -0.0071201813 -0.060039647 0.053638075 0.23798448 0.023854302
0.01867794 0.047248814 -0.04981582 0.13048424 0.1804857 0.12883608 -0.06205371 -0.030195922
-0.16542853 -0.06846167 -0.05683422 0.059591293 0.027665384 -0.00029962594 0.022449892 -0.08306552
0.009874956 -0.34458998 0.29172003 -0.09040128 -0.15139599 0.07510572 0.16559519 -0.08500145
-0.16689275 -0.23037523 -0.03684015 0.090864 -0.0038304718 -0.22694112 0.0050503397 0.00846703
0.029986368 -0.07158114 0.06770799 -0.11929639 -0.004111188 0.41072533 0.17121965 0.022269946
0.11310601 0.0151824225 -0.08736223 0.19242802 -0.024078198 0.0400318 -0.06679466 -0.24843399
-0.15632655 -0.19187519 -0.059019964 0.04314773 0.2245833 -0.009562899 0.13840485 -0.11839573
-0.1719426 -0.11788101 0.047935396 0.057646714 0.18163423 0.109725185 -0.18842408 -0.06411768
-0.112405546 -0.045020837 0.21762964 -0.18568161 0.03924949 0.21501823 -0.2616524 0.03938564
-0.02838759 0.40706086 0.056574326 0.22560178 0.045906786 -0.118224606 -0.12744877 0.14453244
0.07993923 0.20558237 0.043008227 0.040178765 -0.07956057 0.14554468 0.08572852 -0.11725814
-0.10979618 0.112166904 0.016447391 -0.08485388 -0.24899822 0.08933933 -0.09407984 -0.1745378
-0.15039602 -0.2707423 -0.19123948 0.091613315 0.31923392 -0.13860841 -0.106053144 0.11160931
-0.06739292 -0.028307341 -0.19931804 0.15365425 0.27041265 -0.5872682 0.021099692 0.22251749
0.07995305 0.047380555 -0.086194895 -0.14860733 0.099923596 0.13964878 -0.1942078 -0.028024415
-0.3314315 -0.05085458 -0.123306364 -0.056831446 0.2330427 0.0026412115 0.29681262 -0.07347344
0.22188811 0.060195252 0.058296267 0.33330142 0.049586266 0.14445096 0.13947363 -0.07117402
0.15431 -0.14401776 -0.06667312 -0.022920063 -0.031935766 0.035522353 -0.025209052 0.057889763
-0.28078955 0.19613817 -0.027343176 -0.02443072 0.10938459 0.094760105 0.09033849 -0.25184143
0.20875776 -0.021828713 0.2020266 -0.014217396 0.12609863 0.10060273 0.21260788 0.19825578

8 f4 [32]
00000000: e676 cebe 4cf7 23be 3604 b8be 7e0d d23c
00000010: 3a3f c0be 8964 40be 8555 b2be 6721 97be
00000020: d182 40be 5194 babc a115 de3d 3a88 87be
00000030: 1db3 3ebe f7a5 62be a60c a13d e3ac 82be
00000040: 991d eabd 599b e5bc 0c4d b9be a9f5 e7be
00000050: 979b 9cbe 1068 67be 2f9e 03be 08da 97be
00000060: 6c53 7e3c e3e0 a1bc 6f2a 4bbe e735 83be
00000070: 4357 dfbe c391 18be 8fa9 d9be 10ba 56bd
-0.40325087 -0.16012305 -0.35940713 0.0256412 -0.37548238 -0.18788351 -0.3483087 -0.2951767
-0.18799902 -0.0227758 0.10843969 -0.2647112 -0.18623014 -0.22133623 0.078637406 -0.25522527
-0.114314266 -0.028028177 -0.36191595 -0.4530461 -0.30587456 -0.2259829 -0.12853311 -0.29658532
0.015522819 -0.019760555 -0.19840406 -0.25627062 -0.43621263 -0.14899354 -0.42512175 -0.052423537

9 f4 [256, 800]
00000000: 7004 583d f47f 0b3d c7c3 a5bd 51de c9bd
00000010: 2338 67bd 7f22 363d ebce 5bbd 86b3 063e
00000020: 5a54 bc3d b77b 8bbd 73ca d43c 1885 1fbd
00000030: 893d 82bc a745 b4bc 24dc 7dbd 4ad2 203e
00000040: 756e 7e3d 177d 8cbc e9fa 033e 0942 953d
00000050: ac1a d8bd cbfc a1bd 0db3 80bc 71a6 b9bc
00000060: db23 103e 7aa2 2b3d 4b4c 3ebe 8e59 e0bd
00000070: 0842 463e e1ab 703e e989 eebd e4ff a8bc
00000080: e18b 293e 0692 c7bc c9a0 333e 2106 2dbd
00000090: f4ae ed3d af1d c13d 3f2a 82be 7f66 eebd
000000a0: c3fe a7bd 08b7 a4bd cdde cf3d 89bd 7f3d
000000b0: 1054 013e 122c 58bc 8a83 b23d 7d17 82bc
000000c0: 72a3 e23d 4fc0 dfbd c32e 0b3d c23d 2f3b
000000d0: bc5f d43d 4ef7 d23b 76c3 d1bd e3e8 81bb
000000e0: ac74 47bb 2e9c 1dbe b9e6 f2bc 5736 cbbc
000000f0: 5fbc 483e c39e 2fbd 95bd 1f3c 1ffb 033c
00000100: 6170 12bd 08c6 b5bc 38cd b5bc 55e9 a3bd
00000110: dbdb b73d 0313 d93d 993d 31bc 4e4f db3d
00000120: 836b 9b3c c19a ee3d f61a 0f3e 8786 bbbd
00000130: 4bff 75bd ccd5 8f3d 9b43 153c 18ea 4ebe
00000140: 43a7 e63d 9f29 45bb 9bf1 7cbb 105f cd3b
00000150: 47b3 c13b 0259 523e 1088 84bd 4fdd cc3d
00000160: 960d 1f3d a315 c83c c577 dfbb 9779 1cbe
00000170: 4f17 513c ff55 ae3d 45b6 2d3e 012c 45bd
00000180: ba91 dc3c 1e77 76bd 1151 b2bc d7e2 f7bc
00000190: cff5 143e b4cd 89bd a151 c0bd 3ce8 0e3d
000001a0: 716a 5f3d 24fc a33d 353c 973d 1942 a7bd
000001b0: bee6 8bbd 79a5 f93d e538 b33d 2511 fabd
000001c0: 5004 643b 1717 55bd 3e7d b7bc 6f53 ad3d
000001d0: 6057 9fbc 6dc5 98bd e749 023e fd6e 623d
000001e0: 88e4 fd3d 6fef f53d 5594 d6bd 4dc3 dbbc
000001f0: 9ad8 94bd 9d20 853d 23f8 33bc 487a 453d
00000200: 0418 343c 77d3 53be fca5 81bb b188 fabd
00000210: af39 453c 8e8c f6bd 06c9 833d f038 11be
00000220: 6f5b 44be 0a6e 583e 6ef6 f03c 5e4d fa3d
00000230: 5085 91bc 8bb0 14be 275f 473c 2bfc 093e
00000240: 93de c8bc e2a5 113b 5aec 153b 8ada 1e3e
00000250: 2e42 2a3d 3594 233e bf0e d13c ff32 063e
00000260: 1b73 97bc 8380 613d d470 a6bb 9f60 d9bb
00000270: 7720 2b3d 253c 77bd 9238 69bb 15b7 233d
00000280: a9bd 313d e454 8cbd 9bb5 043e 5c7d 82bd
00000290: 1b21 bebd ef8a 693d e7a2 503d 0401 ee3b
000002a0: fed8 89bd b7aa a03d f906 893d 7024 2f3d
000002b0: 32bf d13d 8fce 71bd 25ea 863d 8d4d 2a3d
000002c0: 48d1 a9bd be29 8c3c 9eb6 58bd 31bb a73d
000002d0: 4ceb 67be ad21 4b3d 0bef 54bc 435a a7bd
000002e0: 4ab9 d9bd cbbc d6bd 5338 b0bc da2c bd3d
000002f0: 2e51 5a3a a557 7a3d 9e1e d6bb 9a71 e53d
00000300: dce5 0f3d 28a6 8bbd 26ca 503c dac5 c1bd
00000310: b70c 1d3d 76ed 383d 30f8 cc3d 026b f33c
00000320: 7d9e c8bd 49e3 ae3d 8e57 213d b84d 053d
00000330: 6028 393d 42cd 48ba ee44 38be 93c7 7f3e
00000340: 9144 063d be8c edbc eb57 4fbd 7939 b3bc
00000350: e583 fcbd 4edf 223c dd2f e5bc 012e 233d
00000360: 036f 85ba cd97 2abe 6643 893e ac9f 333e
00000370: fc00 52be 64df 11be 22d5 173d 6b13 153d
00000380: 2267 a1bc 0b39 013d 720a 493d 7fcf a33d
00000390: 3e06 f73b 63c5 4ebc b46b 95bd 2dfa 333e
000003a0: b84f e6ba c74c 92bd 7aea 7d3d 22c0 febd
000003b0: 7814 ffbc 6380 ac3d c837 40bd 08b1 3c3c
000003c0: 59de 4b3d 432f f5bc 48d4 8c3d 707a a13d
000003d0: a389 053c bb1b 983c 7249 653d 8231 32bc
000003e0: e938 593d 2340 b7bd 4b42 f0bd 61a9 bdbc
000003f0: ebd0 b3bc c02c 923c 2077 a23d 2c99 3bbe
0.052738607 0.034057572 -0.08093982 -0.098568566 -0.05645002 0.04446649 -0.05366413 0.1315442
0.09195776 -0.06810706 0.025975442 -0.038945287 -0.015898483 -0.02200587 -0.06197752 0.15705219
0.06211706 -0.017149491 0.12888683 0.07287986 -0.10551962 -0.079095446 -0.015710378 -0.022662373
0.14076178 0.041902997 -0.18583791 -0.10954581 0.19361126 0.23503067 -0.11647398 -0.02062983
0.16557266 -0.024361622 0.17541803 -0.042242173 0.11605635 0.0942949 -0.25422856 -0.11640643
-0.08202889 -0.08042723 0.10149918 0.062436614 0.12629724 -0.013194101 0.08716495 -0.01588034
0.11066331 -0.10925352 0.033980142 0.0026739691 0.103698224 0.0064381724 -0.10242359 -0.00396453
-0.0030434532 -0.15391609 -0.029651033 -0.024806185 0.19603108 -0.042876016 0.00974979 0.008055477
-0.035751704 -0.022189155 -0.022192582 -0.08003489 0.08977481 0.10599329 -0.010817909 0.107084855
0.018972164 0.11650611 0.13975129 -0.091565184 -0.06005792 0.070232004 0.009110357 -0.20206487
0.112623714 -0.0030084623 -0.0038596157 0.006267436 0.005911264 0.20541766 -0.06471264 0.10003149
0.038831316 0.02442438 -0.0068196976 -0.15280758 0.012761905 0.08512496 0.16964062 -0.04813767
0.026924957 -0.060172193 -0.021767171 -0.030259533 0.14546894 -0.06728688 -0.093905695 0.034889445
0.05454487 0.080070764 0.073845305 -0.08166904 -0.0683112 0.121897645 0.08751086 -0.12210301
0.003479261 -0.052023973 -0.022398587 0.08463179 -0.019450843 -0.07459531 0.12723504 0.055281628
0.123971045 0.12008559 -0.10477511 -0.026826525 -0.07267876 0.06500361 -0.010984453 0.04821232
0.010992054 -0.20686136 -0.0039565545 -0.12233103 0.012037679 -0.120385274 0.064348266 -0.14181876
-0.19175504 0.21135727 0.029414382 0.12221788 -0.017763764 -0.14520471 0.012168682 0.134751
-0.024520194 0.0022224118 0.0022876472 0.15513054 0.04156702 0.15974505 0.025519727 0.13105391
-0.018487504 0.0550542 -0.005079368 -0.0066338326 0.041779008 -0.060360093 -0.0035586697 0.039969523
0.043393765 -0.06852129 0.12959902 -0.06371567 -0.09283658 0.057017263 0.050936606 0.0072633047
-0.06730841 0.07845061 0.06690783 0.04275936 0.10241546 -0.05903488 0.06587628 0.041577864
-0.0829187 0.017109748 -0.052908532 0.08190001 -0.22648352 0.049592663 -0.012996445 -0.08171513
-0.10631044 -0.10485228 -0.021511232 0.092370704 0.0008328137 0.06111874 -0.0065344116 0.112033084
0.03513132 -0.06818801 0.012743508 -0.09461565 0.038342204 0.045148335 0.100082755 0.029714111
-0.09795854 0.08539445 0.03939014 0.03254482 0.04520452 -0.00076599803 -0.17995045 0.24978475
0.032780234 -0.028997775 -0.050620954 -0.021877991 -0.123298444 0.009940935 -0.027976925 0.039838795
-0.0010180179 -0.1665947 0.26809233 0.17541379 -0.20508188 -0.14245373 0.037068494 0.03639547
-0.019702498 0.03154854 0.049082227 0.07998561 0.007538586 -0.012620303 -0.07295933 0.17575903
-0.0017571365 -0.0714355 0.061991192 -0.1243899 -0.03113769 0.08422925 -0.046928197 0.011516817
0.049772594 -0.029929763 0.06876427 0.07884681 0.008150491 0.01856791 0.055978246 -0.010876061
0.05303279 -0.0894778 -0.117313944 -0.023152055 -0.021950206 0.017843604 0.079328775 -0.18320149

10 f4 [256]
00000000: 6b90 a0bd 11ba d83c 153d c4be 18e3 6bbe
00000010: 5d98 623d ef19 66bd 7f4d 993c 218d 77bf
00000020: b51e e4bc ad65 093e 6361 d33d 9b77 323d
00000030: f9ab 86bd 22d8 6f3d ba2f 2f3d c56b 3b3d
00000040: fb58 e83d 624c eebd 7246 1fbd cc19 52bc
00000050: 14c5 84bd 6896 053d afcf 8bbd e877 453d
00000060: cf51 93bd 4fbb 38be 1283 8a3d f38c b43d
00000070: 8a9e 833d 7d3a 71bd a301 db3d bf6c c4bc
00000080: 4575 97bd 7c96 9cbc 2b83 25be e1df b43e
00000090: ab29 d3bd 309a 71be 3d57 95bd 2e0f b6bd
000000a0: a432 373e 175b ea3d b25d 0e3d aee4 3c3e
000000b0: c76b 54be eff5 b9bd 9093 a7bd 0371 f3bd
000000c0: 67a4 10be 109c 523e 6dc8 b03d 1fe0 073e
000000d0: 0465 59bd b2c4 833d 0ef1 95bc 85b4 00be
000000e0: 7bdb e3bd fdab c33d 2452 373d 4162 b23c
000000f0: 8e49 813e e285 e7bd da6a 91bd fd90 5bbd
00000100: 4c39 323d 4bc5 bfbd 40a0 0e3b ad0c 05bd
00000110: c1af 193d 1e24 9ebe 6f72 cdbd 6367 82bd
00000120: 07c9 c33d 6976 783d 4a4d d13c a261 543e
00000130: ceca b9bd 1c84 423c ef3c 503b 2718 bbbd
00000140: 776e f0bd 1c6c 06ba 39ac ea3c 85b6 d3bc
00000150: 6a35 b6bd 66cc 923d a220 2bbc fd61 8b3d
00000160: d6aa f5bd 25c7 27be 7b04 153e 7ed3 a83c
00000170: 6564 993d adab 8d3c d3b0 563e e66c 2b3e
00000180: 36da e1bd 98fe f1bd 3041 a8bc 67b8 a5bd
00000190: 3335 e0bd 8387 d33d e52a 83bc a4b3 1d3d
000001a0: 5af4 25bf d4b6 7ebc 734a 58bd 59fc 3e3e
000001b0: d101 3dbf 81be 0b3e a2f0 4b3d 6f70 38be
000001c0: bdc0 39bc 53cd a53d 8d0e 3c3e d113 cb3d
000001d0: ba4b 61be eeac 00be 1b30 77bc 6b41 943c
000001e0: 753c 7c3d 547a e4bc e805 033d ee43 613d
000001f0: 1879 b33c 8757 27bc 7778 4bbe 011d 9f3c
00000200: a135 1f3d ada9 61bd b0a1 8a3d 35a3 5bbd
00000210: d1cf f53d a46b e3bc 7508 6f3d 0f61 473d
00000220: b8be f13b 7609 5a3d d3ed 373d a21f bc3c
00000230: b0d7 d23c 86b2 113d 6b82 483d 1e68 ef3b
00000240: fc52 0a3d ec04 643d ed04 d8be 4950 bb3d
00000250: cbf7 d23d 98ee 52bc 1427 66bd a0d4 97bd
00000260: b661 ffbc bbb3 953c d794 703d 3551 0b3e
00000270: 0e88 e4bc 9543 c7bd 06a0 27be c81b 0e3e
00000280: 1c09 cf3c f5c9 06bc 6aef 27bf 1d77 e0bc
00000290: d58b 9bbc 4930 efbc 8e29 83bd 5dd9 a03d
000002a0: 348e 003f d34d 9bbd 45e0 693d 5427 14be
000002b0: d304 113f 39a7 01be 9a49 15be 6fb0 4bbe
000002c0: 940b 723c c9be 1bbe f011 1bbe ae7b 8dbd
000002d0: 65c5 623d 33de 45be e887 ad3c 5d07 053d
000002e0: 5ba5 9a3d b281 dfbd c107 483e 2c41 fdbd
000002f0: f738 3dbc efee bcbc 7e55 c4be d816 753b
00000300: d389 113e 4e18 7dbd 7e40 4d3e eb36 183d
00000310: 8332 38bd 33aa ef3d bcd3 3abe 65bf 81bd
00000320: 6076 113e 65fd d53d f5ea a13d 5afb b6bd
00000330: 7cb1 b5be 262e 783d 3ae3 693d 6680 223d
00000340: 3626 5e3e 5e7b 0b3d be27 a5bd 1c9a b0be
00000350: 984b 473d 7924 7f3e 2524 f8bd 1722 513d
00000360: da08 39bd 709c 36be 0330 d4bd ff56 7bbd
00000370: 1ddf b9bd 0609 0a3d e578 193d 021d 81bd
00000380: 7133 b83d aced 0cbd 9b5e c43d 2e89 67bf
00000390: 71e1 ea3c 0913 383e 74fe 813d a3e4 88bd
000003a0: 0f8d 4f3e 6792 d5bd 1cdc 45bd 6545 7ebd
000003b0: 5aad aa3d 04d8 b7bc 3b72 0ebc e04b 3ebd
000003c0: de85 e83d 6c8e 0d3d f9fa e93c 5bec af3d
000003d0: 5c18 653d 8f31 52bd bb31 5dbd 9f67 9c3d
000003e0: 3281 173d edd5 fabc 3d2b 073e 2cc6 3d3e
000003f0: 93af 23bd 8689 203e 67a4 6abf e92b 9e3d
-0.078400455 0.02645591 -0.38327852 -0.23035848 0.055321086 -0.056177076 0.01871371 -0.9669972
-0.027846674 0.13417692 0.103213094 0.043571096 -0.0657577 0.05855573 0.042770125 0.045757074
0.11345097 -0.116356626 -0.03888554 -0.012823533 -0.06482902 0.03261414 -0.06826722 0.048210055
-0.07193338 -0.18040203 0.06763281 0.088159464 0.06426723 -0.05889367 0.106936716 -0.023977635
-0.07395414 -0.019114725 -0.16163318 0.35327056 -0.10310682 -0.23593974 -0.0729203 -0.08889614
0.17890412 0.11443155 0.034757324 0.1844661 -0.20744239 -0.09080111 -0.08182442 -0.1188679
-0.14125215 0.20567346 0.08631978 0.13269089 -0.05307485 0.06434001 -0.01830342 -0.12568863
-0.11125847 0.095542885 0.04475607 0.021775367 0.2525143 -0.11304833 -0.071004584 -0.05360507
0.043511674 -0.093638025 0.0021762997 -0.03248279 0.037521128 -0.3088693 -0.10031592 -0.06367376
0.09559827 0.0606598 0.02554955 0.20740369 -0.09071885 0.011872318 0.00317746 -0.09135466
-0.117398195 -0.0005127804 0.028646575 -0.025843868 -0.08896907 0.07167892 -0.010444792 0.06805799
-0.11995475 -0.16384561 0.1455249 0.02060866 0.07489852 0.017293775 0.2096589 0.1674076
-0.110279486 -0.11816138 -0.020538896 -0.080918126 -0.10947647 0.10328581 -0.016011665 0.038501397
-0.64825976 -0.015546519 -0.052805375 0.1865095 -0.73830897 0.1364689 0.049790032 -0.1801164
-0.011337456 0.08095803 0.18364926 0.09915889 -0.22001544 -0.12565967 -0.015087153 0.0180976
0.061581094 -0.027890362 0.031988055 0.054996423 0.021908328 -0.010213739 -0.19870172 0.01942301
0.038869504 -0.055093456 0.06769121 -0.053622443 0.120025285 -0.027761288 0.058357675 0.048676547
0.007377472 0.05323168 0.04490454 0.022964302 0.025737613 0.035570644 0.0489525 0.007306113
0.033770546 0.055668756 -0.42191258 0.091461726 0.10301169 -0.012874268 -0.05618961 -0.07413602
-0.031174522 0.018274179 0.058735695 0.13605197 -0.027896907 -0.09729687 -0.16369638 0.13877785
0.025272898 -0.008226861 -0.6559969 -0.027400548 -0.018987576 -0.029197829 -0.0640441 0.07853959
0.50216985 -0.07583203 0.057098646 -0.14468127 0.56647986 -0.12661447 -0.14578858 -0.19891523
0.014773268 -0.15209498 -0.15143561 -0.06908356 0.05536403 -0.19323044 0.02118297 0.032477725
0.0755107 -0.10913409 0.19534208 -0.12365946 -0.011549226 -0.023063151 -0.38346475 0.003739765
0.14212732 -0.061790757 0.20044133 0.03716175 -0.044970047 0.11702385 -0.18244833 -0.06335334
0.14205313 0.10448722 0.079061426 -0.0893466 -0.35486972 0.060590886 0.057101466 0.03967323
0.21694264 0.0340532 -0.08064221 -0.34492576 0.048656076 0.24916257 -0.12116269 0.0510579
-0.045174457 -0.17833114 -0.1036072 -0.061362263 -0.090757586 0.03370001 0.03746881 -0.06304361
0.08994187 -0.03440635 0.09588357 -0.90443695 0.028671952 0.17976011 0.06347361 -0.06684234
0.20268653 -0.10428315 -0.048305616 -0.0620779 0.083338454 -0.022441871 -0.008694227 -0.04645908
0.11353658 0.034559652 0.028562056 0.08590003 0.055931434 -0.051316794 -0.054002505 0.07636952
0.036988445 -0.030619586 0.13200088 0.18532628 -0.039962362 0.15677461 -0.9165711 0.07723219

11 f4 [1, 256]
00000000: 39be 2a3b 39f4 87b9 8316 28bb c355 c9ba
00000010: a40f 853a ed18 513b 7385 06bb 274d 5bbe
00000020: a666 0739 d5b9 dd3b b252 9039 f30b 7f3a
00000030: f9dc ca39 ecd7 343a 91c3 ccbb 829c b83a
00000040: 2bde b6b9 e654 663b 0f53 77bb 9d44 84ba
00000050: 69c1 94bb 5d2e 2c3a 3097 4c3a 3fef df3b
00000060: 3ff2 15bb 5ef8 c1bb 084a 1dbb 53a1 88bb
00000070: e763 79bb f2b2 35bb f740 4839 1643 c03a
00000080: fa7c 5d3b 42d6 00bb b763 843b 0ded 2339
00000090: d378 d83a b1f8 63bc c5a4 93b9 1d25 0cbb
000000a0: 1119 d83a 954c 223b 13c4 923b 5132 93bb
000000b0: e78b 34bb 53f0 86bb f710 413a d720 f4ba
000000c0: a977 2b3a 784f 8d3a e5ec e23a 2061 e4ba
000000d0: 5489 453a 0bd9 db3a fa0d 3239 999b 2e3b
000000e0: 03a3 893b f616 1fbb 2b92 213b d9d4 bc3b
000000f0: ba86 94ba ae9a f7b9 6995 6c3b 523b 3dbb
00000100: d474 e13a e123 29ba ded0 7b3a df36 deba
00000110: 1d5e 9cb9 2ce0 c23a bd51 e139 c3a0 b339
00000120: 9962 9939 8938 1d3b 25c3 2e3a 7ddc 88ba
00000130: 26ae 0e3b ddac 093b 3bd3 873a 0d3a a4b9
00000140: 4382 0bbb 0957 bfbb a36a 5c3b 0505 ae3a
00000150: 3683 283b 6024 3e3b 2d75 65bb c08b 7fbb
00000160: dba4 a5ba 729e f1ba 902a 1f3b 8bdf ab3a
00000170: 8eda 603b 80f9 2abb 42d8 b639 19ce e43a
00000180: e3f4 5c3b be1d e1ba d0e7 13bb 8c17 6ebb
00000190: 00c7 033a 8d00 daba 934e 0d3b e9b8 03b9
000001a0: 591d 72bb d4a9 3ebb aede 873a 38dc 2b3b
000001b0: 24f0 6fba 33fe 173b 5582 e23a c753 8dbb
000001c0: 5a87 6e3b 75e0 aaba 4123 513b b48c 173b
000001d0: 37de 00bb b986 5c39 464e 2bb8 3dba a9b9
000001e0: 9dec 81ba 852e 8039 3e3f 1cbb e6bb e43a
000001f0: 3546 a4bb 4e36 cdbb e33a 5abc 7995 58b9
00000200: 9a3d efb9 85d1 6cbb 945e a1ba ceee 15ba
00000210: c715 1a3a 23a8 013b 481d b1ba f416 2a3b
00000220: 710c 2a39 f425 9138 8f98 773a 2d45 7a3a
00000230: 1855 fb3a 73c6 5b3b 866f a539 9d9a 3c3b
00000240: 6e2b ecba c8ab 9aba 8005 62ba c1ac 243a
00000250: f5b3 0a3b 5b8f 4b3b 95ad 20ba 4847 0c3b
00000260: 397d 0cbb 846b 273b da93 2cbb 9a8e 2e3b
00000270: 8a3d a3ba 8d8d 85bb 683d 8fba 15ca 593b
00000280: 24d0 e93a 2e40 873b 537e e9bb 5055 38ba
00000290: b221 3fbb 3391 53ba b996 463b 9678 93b9
000002a0: d798 f6ba 5665 b739 c362 ad3a 5745 87bb
000002b0: 262d 00b9 169b 51bb 88a0 5fba 3678 f2bb
000002c0: 9fd1 793b 6ed9 9f3b 1a07 f6ba d45c 32bb
000002d0: f91a 9839 a881 1bbb 389b 933a 57fd 73bb
000002e0: 8831 7b3b fd64 903a c68f 4f39 a44c eb39
000002f0: 9c32 4d3b 6b74 03bb 903d 76ba 21f4 f43a
00000300: b9f0 87bb 7133 9639 90bc ba3a 8811 423b
00000310: 48c0 753a aef9 4d38 ea4d cf3a ecee 89ba
00000320: f246 b23a 444e 09bb 2c0c a5b9 9f52 dcb9
00000330: 6c2f b4ba e46e b139 b92a 5f3b eac0 593b
00000340: e637 aeb9 14f2 0a3b 8201 79bb f913 5bba
00000350: f676 873b fb75 463b b05b 6cbb 4a3c 09ba
00000360: 6ff3 87b9 e998 a439 b2d2 75ba cdfd fcba
00000370: 8aa3 db3a 5dae 84bb 72ae 9039 7a5c 4438
00000380: cf00 343a ac41 03bb 691b 363b 98e3 ebbd
00000390: a37c 9ab9 ae03 093b be13 943b f9ba 11bb
000003a0: 8680 183b d167 39bb eb39 c9b9 389a af3b
000003b0: 4211 083a 81a0 2bbb e180 8239 f50a 7bba
000003c0: a199 c63a 1dd2 bdba 204c a6ba 014f 103b
000003d0: 9c82 bf3a f83f 633b f29f a8ba b6c2 5b3b
000003e0: cedd 8cb8 473f 98ba f119 beba da2b f4ba
000003f0: 498e 8cba c2d4 df3a fda0 0abe 0114 2cbb
0.0026053323 -0.00025931167 -0.0025648184 -0.0015360642 0.0010151756 0.0031905726 -0.002052632 -0.2141615
0.00012912843 0.0067665377 0.00027527433 0.00097292586 0.0003869308 0.000689863 -0.0062488993 0.0014084729
-0.00034879273 0.0035145818 -0.0037738716 -0.0010091249 -0.004539658 0.0006568188 0.0007804511 0.0068339403
-0.0022879986 -0.0059195003 -0.0024000425 -0.004169622 -0.0038053931 -0.0027725068 0.00019097688 0.0014668431
0.0033796416 -0.0019658958 0.0040402072 0.000156332 0.0016515501 -0.013914273 -0.00028160788 -0.0021384426
0.0016486963 0.0024764885 0.0044789403 -0.004492082 -0.0027549209 -0.0041180043 0.00073648937 -0.001862551
0.0006540963 0.001078113 0.0017313032 -0.0017423965 0.0007535417 0.0016773058 0.0001698061 0.0026643036
0.0042003407 -0.002427516 0.0024653773 0.005762678 -0.0011331656 -0.00047226757 0.0036099798 -0.002887447
0.0017200955 -0.0006452185 0.0009606014 -0.0016953609 -0.00029824759 0.0014867834 0.00042976244 0.00034261317
0.00029255895 0.0023989996 0.0006666652 -0.0010441687 0.002177128 0.0021007576 0.0010362634 -0.0003132377
-0.0021287359 -0.005839233 0.0033632896 0.0013276642 0.0025712973 0.002901338 -0.003501247 -0.003899321
-0.0012637632 -0.0018434061 0.0024286844 0.0013112886 0.0034309956 -0.0026088655 0.0003487487 0.0017456441
0.00337153 -0.0017175002 -0.002256859 -0.0036329953 0.0005026907 -0.0016632244 0.0021561726 -0.00012562018
-0.0036943762 -0.0029092925 0.0010366046 0.002622379 -0.000915291 0.0023192286 0.0017281274 -0.0043129656
0.0036396594 -0.0013036864 0.0031911882 0.0023124637 -0.00196637 0.00021031023 -4.0842475e-05 -0.0003237295
-0.0009912435 0.00024448722 -0.0023841406 0.0017451018 -0.005013252 -0.006262577 -0.013319704 -0.00020655048
-0.0004563153 -0.0036135626 -0.0012311512 -0.00057194836 0.0005877879 0.0019784055 -0.0013512755 0.0025953623
0.00016217098 6.921208e-05 0.0009445035 0.0009547051 0.001917514 0.0033535033 0.00031554344 0.002877868
-0.0018018314 -0.0011800462 -0.00086220354 0.0006281846 0.0021164392 0.0031060788 -0.00061293814 0.0021404792
-0.0021436943 0.0025546262 -0.0026333244 0.002663529 -0.0012454253 -0.004075712 -0.0010928335 0.0033232023
0.001783852 0.004127524 -0.0071256547 -0.00070317555 -0.002916437 -0.00080706476 0.003030224 -0.00028127868
-0.001881386 0.0003497998 0.0013228286 -0.004128139 -0.0001222385 -0.0031983308 -0.0008530696 -0.007399584
0.0038119329 0.0048782146 -0.0018770427 -0.0027215974 0.00029011795 -0.0023728404 0.0011261469 -0.003722986
0.0038329083 0.0011016425 0.00019794618 0.00044879795 0.0031310683 -0.0020058404 -0.0009393329 0.0018688479
-0.0041485694 0.00028648556 0.001424687 0.00296125 0.00093746604 4.910834e-05 0.0015816067 -0.0010523475
0.0013601466 -0.002095119 -0.0003148032 -0.00042023227 -0.0013747043 0.0003384269 0.0034052564 0.0033226558
-0.00033229514 0.0021201419 -0.0037995283 -0.0008357163 0.0041340543 0.0030282724 -0.0036065392 -0.0005235119
-0.0002593058 0.00031394445 -0.00093774043 -0.0019301713 0.0016757112 -0.004049106 0.00027595792 4.6816167e-05
0.00068665756 -0.0020028157 0.0027787334 -0.115180194 -0.0002946603 0.0020906734 0.004518955 -0.0022236689
0.0023269965 -0.002829064 -0.0003838086 0.0053589605 0.000519056 -0.0026188197 0.00024891554 -0.0009576523
0.0015151986 -0.0014482174 -0.0012687482 0.0022019746 0.0014611068 0.003467558 -0.001286505 0.0033532805
-6.7170346e-05 -0.0011615538 -0.0014503581 -0.0018628791 -0.0010723557 0.0017076957 -0.13537975 -0.002625704
